

stories 2732634
chars 2191281193
longest 4433
chars used: 52428800
dataset proportion used: 0.023926094089376872
74 chars used:
 !"$',-.0123456789:;?ABCDEFGHIJKLMNOPQRSTUVWXYZabcdefghijklmnopqrstuvwxyz
====================================================================================================
Layer (type:depth-idx)                             Output Shape              Param #
====================================================================================================
TransformerWrapper                                 [1, 1024, 75]             --
├─TokenEmbedding: 1-1                              [1, 1024, 384]            --
│    └─Embedding: 2-1                              [1, 1024, 384]            29,184
├─Identity: 1-2                                    [1, 1024, 384]            --
├─Dropout: 1-3                                     [1, 1024, 384]            --
├─Identity: 1-4                                    [1, 1024, 384]            --
├─Decoder: 1-5                                     [1, 1024, 384]            --
│    └─ModuleList: 2-2                             --                        --
│    │    └─ModuleList: 3-1                        --                        --
│    │    │    └─ModuleList: 4-1                   --                        --
│    │    │    │    └─LayerNorm: 5-1               [1, 1024, 384]            --
│    │    │    └─Attention: 4-2                    [1, 1024, 384]            --
│    │    │    │    └─Linear: 5-2                  [1, 1024, 384]            147,456
│    │    │    │    └─Linear: 5-3                  [1, 1024, 384]            147,456
│    │    │    │    └─Linear: 5-4                  [1, 1024, 384]            147,456
│    │    │    │    └─Attend: 5-5                  [1, 6, 1024, 64]          --
│    │    │    │    └─Linear: 5-6                  [1, 1024, 384]            147,456
│    │    │    └─Residual: 4-3                     [1, 1024, 384]            --
│    │    └─ModuleList: 3-2                        --                        --
│    │    │    └─ModuleList: 4-4                   --                        --
│    │    │    │    └─LayerNorm: 5-7               [1, 1024, 384]            --
│    │    │    └─FeedForward: 4-5                  [1, 1024, 384]            --
│    │    │    │    └─Sequential: 5-8              [1, 1024, 384]            --
│    │    │    │    │    └─Sequential: 6-1         [1, 1024, 1536]           --
│    │    │    │    │    │    └─Linear: 7-1        [1, 1024, 1536]           589,824
│    │    │    │    │    │    └─GELU: 7-2          [1, 1024, 1536]           --
│    │    │    │    │    └─Dropout: 6-2            [1, 1024, 1536]           --
│    │    │    │    │    └─Linear: 6-3             [1, 1024, 384]            589,824
│    │    │    └─Residual: 4-6                     [1, 1024, 384]            --
│    │    └─ModuleList: 3-3                        --                        --
│    │    │    └─ModuleList: 4-7                   --                        --
│    │    │    │    └─LayerNorm: 5-9               [1, 1024, 384]            --
│    │    │    └─Attention: 4-8                    [1, 1024, 384]            --
│    │    │    │    └─Linear: 5-10                 [1, 1024, 384]            147,456
│    │    │    │    └─Linear: 5-11                 [1, 1024, 384]            147,456
│    │    │    │    └─Linear: 5-12                 [1, 1024, 384]            147,456
│    │    │    │    └─Attend: 5-13                 [1, 6, 1024, 64]          --
│    │    │    │    └─Linear: 5-14                 [1, 1024, 384]            147,456
│    │    │    └─Residual: 4-9                     [1, 1024, 384]            --
│    │    └─ModuleList: 3-4                        --                        --
│    │    │    └─ModuleList: 4-10                  --                        --
│    │    │    │    └─LayerNorm: 5-15              [1, 1024, 384]            --
│    │    │    └─FeedForward: 4-11                 [1, 1024, 384]            --
│    │    │    │    └─Sequential: 5-16             [1, 1024, 384]            --
│    │    │    │    │    └─Sequential: 6-4         [1, 1024, 1536]           --
│    │    │    │    │    │    └─Linear: 7-3        [1, 1024, 1536]           589,824
│    │    │    │    │    │    └─GELU: 7-4          [1, 1024, 1536]           --
│    │    │    │    │    └─Dropout: 6-5            [1, 1024, 1536]           --
│    │    │    │    │    └─Linear: 6-6             [1, 1024, 384]            589,824
│    │    │    └─Residual: 4-12                    [1, 1024, 384]            --
│    │    └─ModuleList: 3-5                        --                        --
│    │    │    └─ModuleList: 4-13                  --                        --
│    │    │    │    └─LayerNorm: 5-17              [1, 1024, 384]            --
│    │    │    └─Attention: 4-14                   [1, 1024, 384]            --
│    │    │    │    └─Linear: 5-18                 [1, 1024, 384]            147,456
│    │    │    │    └─Linear: 5-19                 [1, 1024, 384]            147,456
│    │    │    │    └─Linear: 5-20                 [1, 1024, 384]            147,456
│    │    │    │    └─Attend: 5-21                 [1, 6, 1024, 64]          --
│    │    │    │    └─Linear: 5-22                 [1, 1024, 384]            147,456
│    │    │    └─Residual: 4-15                    [1, 1024, 384]            --
│    │    └─ModuleList: 3-6                        --                        --
│    │    │    └─ModuleList: 4-16                  --                        --
│    │    │    │    └─LayerNorm: 5-23              [1, 1024, 384]            --
│    │    │    └─FeedForward: 4-17                 [1, 1024, 384]            --
│    │    │    │    └─Sequential: 5-24             [1, 1024, 384]            --
│    │    │    │    │    └─Sequential: 6-7         [1, 1024, 1536]           --
│    │    │    │    │    │    └─Linear: 7-5        [1, 1024, 1536]           589,824
│    │    │    │    │    │    └─GELU: 7-6          [1, 1024, 1536]           --
│    │    │    │    │    └─Dropout: 6-8            [1, 1024, 1536]           --
│    │    │    │    │    └─Linear: 6-9             [1, 1024, 384]            589,824
│    │    │    └─Residual: 4-18                    [1, 1024, 384]            --
│    │    └─ModuleList: 3-7                        --                        --
│    │    │    └─ModuleList: 4-19                  --                        --
│    │    │    │    └─LayerNorm: 5-25              [1, 1024, 384]            --
│    │    │    └─Attention: 4-20                   [1, 1024, 384]            --
│    │    │    │    └─Linear: 5-26                 [1, 1024, 384]            147,456
│    │    │    │    └─Linear: 5-27                 [1, 1024, 384]            147,456
│    │    │    │    └─Linear: 5-28                 [1, 1024, 384]            147,456
│    │    │    │    └─Attend: 5-29                 [1, 6, 1024, 64]          --
│    │    │    │    └─Linear: 5-30                 [1, 1024, 384]            147,456
│    │    │    └─Residual: 4-21                    [1, 1024, 384]            --
│    │    └─ModuleList: 3-8                        --                        --
│    │    │    └─ModuleList: 4-22                  --                        --
│    │    │    │    └─LayerNorm: 5-31              [1, 1024, 384]            --
│    │    │    └─FeedForward: 4-23                 [1, 1024, 384]            --
│    │    │    │    └─Sequential: 5-32             [1, 1024, 384]            --
│    │    │    │    │    └─Sequential: 6-10        [1, 1024, 1536]           --
│    │    │    │    │    │    └─Linear: 7-7        [1, 1024, 1536]           589,824
│    │    │    │    │    │    └─GELU: 7-8          [1, 1024, 1536]           --
│    │    │    │    │    └─Dropout: 6-11           [1, 1024, 1536]           --
│    │    │    │    │    └─Linear: 6-12            [1, 1024, 384]            589,824
│    │    │    └─Residual: 4-24                    [1, 1024, 384]            --
│    │    └─ModuleList: 3-9                        --                        --
│    │    │    └─ModuleList: 4-25                  --                        --
│    │    │    │    └─LayerNorm: 5-33              [1, 1024, 384]            --
│    │    │    └─Attention: 4-26                   [1, 1024, 384]            --
│    │    │    │    └─Linear: 5-34                 [1, 1024, 384]            147,456
│    │    │    │    └─Linear: 5-35                 [1, 1024, 384]            147,456
│    │    │    │    └─Linear: 5-36                 [1, 1024, 384]            147,456
│    │    │    │    └─Attend: 5-37                 [1, 6, 1024, 64]          --
│    │    │    │    └─Linear: 5-38                 [1, 1024, 384]            147,456
│    │    │    └─Residual: 4-27                    [1, 1024, 384]            --
│    │    └─ModuleList: 3-10                       --                        --
│    │    │    └─ModuleList: 4-28                  --                        --
│    │    │    │    └─LayerNorm: 5-39              [1, 1024, 384]            --
│    │    │    └─FeedForward: 4-29                 [1, 1024, 384]            --
│    │    │    │    └─Sequential: 5-40             [1, 1024, 384]            --
│    │    │    │    │    └─Sequential: 6-13        [1, 1024, 1536]           --
│    │    │    │    │    │    └─Linear: 7-9        [1, 1024, 1536]           589,824
│    │    │    │    │    │    └─GELU: 7-10         [1, 1024, 1536]           --
│    │    │    │    │    └─Dropout: 6-14           [1, 1024, 1536]           --
│    │    │    │    │    └─Linear: 6-15            [1, 1024, 384]            589,824
│    │    │    └─Residual: 4-30                    [1, 1024, 384]            --
│    │    └─ModuleList: 3-11                       --                        --
│    │    │    └─ModuleList: 4-31                  --                        --
│    │    │    │    └─LayerNorm: 5-41              [1, 1024, 384]            --
│    │    │    └─Attention: 4-32                   [1, 1024, 384]            --
│    │    │    │    └─Linear: 5-42                 [1, 1024, 384]            147,456
│    │    │    │    └─Linear: 5-43                 [1, 1024, 384]            147,456
│    │    │    │    └─Linear: 5-44                 [1, 1024, 384]            147,456
│    │    │    │    └─Attend: 5-45                 [1, 6, 1024, 64]          --
│    │    │    │    └─Linear: 5-46                 [1, 1024, 384]            147,456
│    │    │    └─Residual: 4-33                    [1, 1024, 384]            --
│    │    └─ModuleList: 3-12                       --                        --
│    │    │    └─ModuleList: 4-34                  --                        --
│    │    │    │    └─LayerNorm: 5-47              [1, 1024, 384]            --
│    │    │    └─FeedForward: 4-35                 [1, 1024, 384]            --
│    │    │    │    └─Sequential: 5-48             [1, 1024, 384]            --
│    │    │    │    │    └─Sequential: 6-16        [1, 1024, 1536]           --
│    │    │    │    │    │    └─Linear: 7-11       [1, 1024, 1536]           589,824
│    │    │    │    │    │    └─GELU: 7-12         [1, 1024, 1536]           --
│    │    │    │    │    └─Dropout: 6-17           [1, 1024, 1536]           --
│    │    │    │    │    └─Linear: 6-18            [1, 1024, 384]            589,824
│    │    │    └─Residual: 4-36                    [1, 1024, 384]            --
│    └─LayerNorm: 2-3                              [1, 1024, 384]            --
├─Linear: 1-6                                      [1, 1024, 75]             28,800
====================================================================================================
Total params: 10,674,816
Trainable params: 10,674,816
Non-trainable params: 0
Total mult-adds (M): 10.67
====================================================================================================
Input size (MB): 0.01
Forward/backward pass size (MB): 173.63
Params size (MB): 42.70
Estimated Total Size (MB): 216.34
====================================================================================================
====================================================================================================
Layer (type:depth-idx)                             Output Shape              Param #
====================================================================================================
TransformerWrapper                                 [1, 1024, 75]             --
├─TokenEmbedding: 1-1                              [1, 1024, 384]            --
│    └─Embedding: 2-1                              [1, 1024, 384]            29,184
├─Identity: 1-2                                    [1, 1024, 384]            --
├─Dropout: 1-3                                     [1, 1024, 384]            --
├─Identity: 1-4                                    [1, 1024, 384]            --
├─Decoder: 1-5                                     [1, 1024, 384]            --
│    └─ModuleList: 2-2                             --                        --
│    │    └─ModuleList: 3-1                        --                        --
│    │    │    └─ModuleList: 4-1                   --                        --
│    │    │    │    └─LayerNorm: 5-1               [1, 1024, 384]            --
│    │    │    └─Attention: 4-2                    [1, 1024, 384]            --
│    │    │    │    └─Linear: 5-2                  [1, 1024, 384]            147,456
│    │    │    │    └─Linear: 5-3                  [1, 1024, 384]            147,456
│    │    │    │    └─Linear: 5-4                  [1, 1024, 384]            147,456
│    │    │    │    └─Attend: 5-5                  [1, 6, 1024, 64]          --
│    │    │    │    └─Linear: 5-6                  [1, 1024, 384]            147,456
│    │    │    └─Residual: 4-3                     [1, 1024, 384]            --
│    │    └─ModuleList: 3-2                        --                        --
│    │    │    └─ModuleList: 4-4                   --                        --
│    │    │    │    └─LayerNorm: 5-7               [1, 1024, 384]            --
│    │    │    └─FeedForward: 4-5                  [1, 1024, 384]            --
│    │    │    │    └─Sequential: 5-8              [1, 1024, 384]            --
│    │    │    │    │    └─Sequential: 6-1         [1, 1024, 1536]           --
│    │    │    │    │    │    └─Linear: 7-1        [1, 1024, 1536]           589,824
│    │    │    │    │    │    └─GELU: 7-2          [1, 1024, 1536]           --
│    │    │    │    │    └─Dropout: 6-2            [1, 1024, 1536]           --
│    │    │    │    │    └─Linear: 6-3             [1, 1024, 384]            589,824
│    │    │    └─Residual: 4-6                     [1, 1024, 384]            --
│    │    └─ModuleList: 3-3                        --                        --
│    │    │    └─ModuleList: 4-7                   --                        --
│    │    │    │    └─LayerNorm: 5-9               [1, 1024, 384]            --
│    │    │    └─Attention: 4-8                    [1, 1024, 384]            --
│    │    │    │    └─Linear: 5-10                 [1, 1024, 384]            147,456
│    │    │    │    └─Linear: 5-11                 [1, 1024, 384]            147,456
│    │    │    │    └─Linear: 5-12                 [1, 1024, 384]            147,456
│    │    │    │    └─Attend: 5-13                 [1, 6, 1024, 64]          --
│    │    │    │    └─Linear: 5-14                 [1, 1024, 384]            147,456
│    │    │    └─Residual: 4-9                     [1, 1024, 384]            --
│    │    └─ModuleList: 3-4                        --                        --
│    │    │    └─ModuleList: 4-10                  --                        --
│    │    │    │    └─LayerNorm: 5-15              [1, 1024, 384]            --
│    │    │    └─FeedForward: 4-11                 [1, 1024, 384]            --
│    │    │    │    └─Sequential: 5-16             [1, 1024, 384]            --
│    │    │    │    │    └─Sequential: 6-4         [1, 1024, 1536]           --
│    │    │    │    │    │    └─Linear: 7-3        [1, 1024, 1536]           589,824
│    │    │    │    │    │    └─GELU: 7-4          [1, 1024, 1536]           --
│    │    │    │    │    └─Dropout: 6-5            [1, 1024, 1536]           --
│    │    │    │    │    └─Linear: 6-6             [1, 1024, 384]            589,824
│    │    │    └─Residual: 4-12                    [1, 1024, 384]            --
│    │    └─ModuleList: 3-5                        --                        --
│    │    │    └─ModuleList: 4-13                  --                        --
│    │    │    │    └─LayerNorm: 5-17              [1, 1024, 384]            --
│    │    │    └─Attention: 4-14                   [1, 1024, 384]            --
│    │    │    │    └─Linear: 5-18                 [1, 1024, 384]            147,456
│    │    │    │    └─Linear: 5-19                 [1, 1024, 384]            147,456
│    │    │    │    └─Linear: 5-20                 [1, 1024, 384]            147,456
│    │    │    │    └─Attend: 5-21                 [1, 6, 1024, 64]          --
│    │    │    │    └─Linear: 5-22                 [1, 1024, 384]            147,456
│    │    │    └─Residual: 4-15                    [1, 1024, 384]            --
│    │    └─ModuleList: 3-6                        --                        --
│    │    │    └─ModuleList: 4-16                  --                        --
│    │    │    │    └─LayerNorm: 5-23              [1, 1024, 384]            --
│    │    │    └─FeedForward: 4-17                 [1, 1024, 384]            --
│    │    │    │    └─Sequential: 5-24             [1, 1024, 384]            --
│    │    │    │    │    └─Sequential: 6-7         [1, 1024, 1536]           --
│    │    │    │    │    │    └─Linear: 7-5        [1, 1024, 1536]           589,824
│    │    │    │    │    │    └─GELU: 7-6          [1, 1024, 1536]           --
│    │    │    │    │    └─Dropout: 6-8            [1, 1024, 1536]           --
│    │    │    │    │    └─Linear: 6-9             [1, 1024, 384]            589,824
│    │    │    └─Residual: 4-18                    [1, 1024, 384]            --
│    │    └─ModuleList: 3-7                        --                        --
│    │    │    └─ModuleList: 4-19                  --                        --
│    │    │    │    └─LayerNorm: 5-25              [1, 1024, 384]            --
│    │    │    └─Attention: 4-20                   [1, 1024, 384]            --
│    │    │    │    └─Linear: 5-26                 [1, 1024, 384]            147,456
│    │    │    │    └─Linear: 5-27                 [1, 1024, 384]            147,456
│    │    │    │    └─Linear: 5-28                 [1, 1024, 384]            147,456
│    │    │    │    └─Attend: 5-29                 [1, 6, 1024, 64]          --
│    │    │    │    └─Linear: 5-30                 [1, 1024, 384]            147,456
│    │    │    └─Residual: 4-21                    [1, 1024, 384]            --
│    │    └─ModuleList: 3-8                        --                        --
│    │    │    └─ModuleList: 4-22                  --                        --
│    │    │    │    └─LayerNorm: 5-31              [1, 1024, 384]            --
│    │    │    └─FeedForward: 4-23                 [1, 1024, 384]            --
│    │    │    │    └─Sequential: 5-32             [1, 1024, 384]            --
│    │    │    │    │    └─Sequential: 6-10        [1, 1024, 1536]           --
│    │    │    │    │    │    └─Linear: 7-7        [1, 1024, 1536]           589,824
│    │    │    │    │    │    └─GELU: 7-8          [1, 1024, 1536]           --
│    │    │    │    │    └─Dropout: 6-11           [1, 1024, 1536]           --
│    │    │    │    │    └─Linear: 6-12            [1, 1024, 384]            589,824
│    │    │    └─Residual: 4-24                    [1, 1024, 384]            --
│    │    └─ModuleList: 3-9                        --                        --
│    │    │    └─ModuleList: 4-25                  --                        --
│    │    │    │    └─LayerNorm: 5-33              [1, 1024, 384]            --
│    │    │    └─Attention: 4-26                   [1, 1024, 384]            --
│    │    │    │    └─Linear: 5-34                 [1, 1024, 384]            147,456
│    │    │    │    └─Linear: 5-35                 [1, 1024, 384]            147,456
│    │    │    │    └─Linear: 5-36                 [1, 1024, 384]            147,456
│    │    │    │    └─Attend: 5-37                 [1, 6, 1024, 64]          --
│    │    │    │    └─Linear: 5-38                 [1, 1024, 384]            147,456
│    │    │    └─Residual: 4-27                    [1, 1024, 384]            --
│    │    └─ModuleList: 3-10                       --                        --
│    │    │    └─ModuleList: 4-28                  --                        --
│    │    │    │    └─LayerNorm: 5-39              [1, 1024, 384]            --
│    │    │    └─FeedForward: 4-29                 [1, 1024, 384]            --
│    │    │    │    └─Sequential: 5-40             [1, 1024, 384]            --
│    │    │    │    │    └─Sequential: 6-13        [1, 1024, 1536]           --
│    │    │    │    │    │    └─Linear: 7-9        [1, 1024, 1536]           589,824
│    │    │    │    │    │    └─GELU: 7-10         [1, 1024, 1536]           --
│    │    │    │    │    └─Dropout: 6-14           [1, 1024, 1536]           --
│    │    │    │    │    └─Linear: 6-15            [1, 1024, 384]            589,824
│    │    │    └─Residual: 4-30                    [1, 1024, 384]            --
│    │    └─ModuleList: 3-11                       --                        --
│    │    │    └─ModuleList: 4-31                  --                        --
│    │    │    │    └─LayerNorm: 5-41              [1, 1024, 384]            --
│    │    │    └─Attention: 4-32                   [1, 1024, 384]            --
│    │    │    │    └─Linear: 5-42                 [1, 1024, 384]            147,456
│    │    │    │    └─Linear: 5-43                 [1, 1024, 384]            147,456
│    │    │    │    └─Linear: 5-44                 [1, 1024, 384]            147,456
│    │    │    │    └─Attend: 5-45                 [1, 6, 1024, 64]          --
│    │    │    │    └─Linear: 5-46                 [1, 1024, 384]            147,456
│    │    │    └─Residual: 4-33                    [1, 1024, 384]            --
│    │    └─ModuleList: 3-12                       --                        --
│    │    │    └─ModuleList: 4-34                  --                        --
│    │    │    │    └─LayerNorm: 5-47              [1, 1024, 384]            --
│    │    │    └─FeedForward: 4-35                 [1, 1024, 384]            --
│    │    │    │    └─Sequential: 5-48             [1, 1024, 384]            --
│    │    │    │    │    └─Sequential: 6-16        [1, 1024, 1536]           --
│    │    │    │    │    │    └─Linear: 7-11       [1, 1024, 1536]           589,824
│    │    │    │    │    │    └─GELU: 7-12         [1, 1024, 1536]           --
│    │    │    │    │    └─Dropout: 6-17           [1, 1024, 1536]           --
│    │    │    │    │    └─Linear: 6-18            [1, 1024, 384]            589,824
│    │    │    └─Residual: 4-36                    [1, 1024, 384]            --
│    └─LayerNorm: 2-3                              [1, 1024, 384]            --
├─Linear: 1-6                                      [1, 1024, 75]             28,800
====================================================================================================
Total params: 10,674,816
Trainable params: 10,674,816
Non-trainable params: 0
Total mult-adds (M): 10.67
====================================================================================================
Input size (MB): 0.01
Forward/backward pass size (MB): 173.63
Params size (MB): 42.70
Estimated Total Size (MB): 216.34
…
