

stories 2732634
chars 2191281193
longest 4433
chars used: 52428800
dataset proportion used: 0.023926094089376872
74 chars used:
 !"$',-.0123456789:;?ABCDEFGHIJKLMNOPQRSTUVWXYZabcdefghijklmnopqrstuvwxyz
==========================================================================================
Layer (type:depth-idx)                   Output Shape              Param #
==========================================================================================
Transformer                              [1, 1024, 75]             --
├─Embedding: 1-1                         [1, 1024, 384]            29,184
├─ModuleList: 1-14                       --                        (recursive)
│    └─Block: 2-1                        [1, 1024, 384]            1,179,648
│    │    └─Attention: 3-1               [1, 1024, 384]            147,456
│    │    │    └─Linear: 4-1             [1, 1024, 1152]           442,368
├─RotaryEmbedding: 1-3                   [1, 6, 1024, 64]          --
├─ModuleList: 1-14                       --                        (recursive)
│    └─Block: 2-2                        --                        (recursive)
│    │    └─Attention: 3-2               --                        (recursive)
│    │    │    └─Linear: 4-2             [1, 1024, 384]            147,456
│    │    └─MLP: 3-3                     [1, 1024, 384]            --
│    │    │    └─Linear: 4-3             [1, 1024, 1536]           589,824
│    │    │    └─Linear: 4-4             [1, 1024, 384]            589,824
│    └─Block: 2-3                        [1, 1024, 384]            1,179,648
│    │    └─Attention: 3-4               [1, 1024, 384]            147,456
│    │    │    └─Linear: 4-5             [1, 1024, 1152]           442,368
├─RotaryEmbedding: 1-5                   [1, 6, 1024, 64]          --
├─ModuleList: 1-14                       --                        (recursive)
│    └─Block: 2-4                        --                        (recursive)
│    │    └─Attention: 3-5               --                        (recursive)
│    │    │    └─Linear: 4-6             [1, 1024, 384]            147,456
│    │    └─MLP: 3-6                     [1, 1024, 384]            --
│    │    │    └─Linear: 4-7             [1, 1024, 1536]           589,824
│    │    │    └─Linear: 4-8             [1, 1024, 384]            589,824
│    └─Block: 2-5                        [1, 1024, 384]            1,179,648
│    │    └─Attention: 3-7               [1, 1024, 384]            147,456
│    │    │    └─Linear: 4-9             [1, 1024, 1152]           442,368
├─RotaryEmbedding: 1-7                   [1, 6, 1024, 64]          --
├─ModuleList: 1-14                       --                        (recursive)
│    └─Block: 2-6                        --                        (recursive)
│    │    └─Attention: 3-8               --                        (recursive)
│    │    │    └─Linear: 4-10            [1, 1024, 384]            147,456
│    │    └─MLP: 3-9                     [1, 1024, 384]            --
│    │    │    └─Linear: 4-11            [1, 1024, 1536]           589,824
│    │    │    └─Linear: 4-12            [1, 1024, 384]            589,824
│    └─Block: 2-7                        [1, 1024, 384]            1,179,648
│    │    └─Attention: 3-10              [1, 1024, 384]            147,456
│    │    │    └─Linear: 4-13            [1, 1024, 1152]           442,368
├─RotaryEmbedding: 1-9                   [1, 6, 1024, 64]          --
├─ModuleList: 1-14                       --                        (recursive)
│    └─Block: 2-8                        --                        (recursive)
│    │    └─Attention: 3-11              --                        (recursive)
│    │    │    └─Linear: 4-14            [1, 1024, 384]            147,456
│    │    └─MLP: 3-12                    [1, 1024, 384]            --
│    │    │    └─Linear: 4-15            [1, 1024, 1536]           589,824
│    │    │    └─Linear: 4-16            [1, 1024, 384]            589,824
│    └─Block: 2-9                        [1, 1024, 384]            1,179,648
│    │    └─Attention: 3-13              [1, 1024, 384]            147,456
│    │    │    └─Linear: 4-17            [1, 1024, 1152]           442,368
├─RotaryEmbedding: 1-11                  [1, 6, 1024, 64]          --
├─ModuleList: 1-14                       --                        (recursive)
│    └─Block: 2-10                       --                        (recursive)
│    │    └─Attention: 3-14              --                        (recursive)
│    │    │    └─Linear: 4-18            [1, 1024, 384]            147,456
│    │    └─MLP: 3-15                    [1, 1024, 384]            --
│    │    │    └─Linear: 4-19            [1, 1024, 1536]           589,824
│    │    │    └─Linear: 4-20            [1, 1024, 384]            589,824
│    └─Block: 2-11                       [1, 1024, 384]            1,179,648
│    │    └─Attention: 3-16              [1, 1024, 384]            147,456
│    │    │    └─Linear: 4-21            [1, 1024, 1152]           442,368
├─RotaryEmbedding: 1-13                  [1, 6, 1024, 64]          --
├─ModuleList: 1-14                       --                        (recursive)
│    └─Block: 2-12                       --                        (recursive)
│    │    └─Attention: 3-17              --                        (recursive)
│    │    │    └─Linear: 4-22            [1, 1024, 384]            147,456
│    │    └─MLP: 3-18                    [1, 1024, 384]            --
│    │    │    └─Linear: 4-23            [1, 1024, 1536]           589,824
│    │    │    └─Linear: 4-24            [1, 1024, 384]            589,824
├─Linear: 1-15                           [1, 1024, 75]             28,875
==========================================================================================
Total params: 18,637,515
Trainable params: 18,637,515
Non-trainable params: 0
Total mult-adds (M): 10.67
==========================================================================================
Input size (MB): 0.01
Forward/backward pass size (MB): 173.63
Params size (MB): 42.70
Estimated Total Size (MB): 216.34
…
